bc_pen_policy.pth (torch, 337732 bytes, 6 tensors)

net.0.weight f4 [256, 45]
000000 0c a2 f4 bd 58 b6 7a bd e4 e3 e7 3d 9d d3 18 3d
       -0.119449705 -0.061209053 0.113227636 0.037311185
000010 ca d1 68 bd f3 57 88 3d 47 45 29 bd 11 11 e9 bd
       -0.056840695 0.066574 -0.041325834 -0.11380208
000020 12 b7 01 3e e8 5c 15 bd a4 10 45 3c 38 ac bd bd
       0.12667492 -0.036465555 0.012027893 -0.09261364
000030 f4 4f b4 3b dd eb 0b 3d 9e fd 08 be 9f 8f 10 be
       0.005502695 0.034160484 -0.13377997 -0.14117287
000040 d4 ed c8 bd 2d c9 f8 3d 6d eb f2 3d dc 72 26 be
       -0.09810987 0.12147746 0.1186131 -0.16254753
000050 25 f5 43 3c 9a 15 99 bd 50 1f 1a be 3a 99 21 be
       0.0119603025 -0.07474823 -0.15051007 -0.15781108
000060 f3 d7 8f bc a4 67 ef bc 45 20 28 3e db e3 1b 3e
       -0.017559027 -0.029224224 0.1641856 0.15223639
000070 b2 ba 05 3e 05 4b 77 bd 83 6c c2 bd ba cd e6 3c
       0.130595 -0.06037428 -0.09493353 0.02817427
000080 38 fb 78 3d c1 31 25 3e 6f 79 e8 b7 78 a6 41 3c
       0.060786456 0.16132261 -2.7713102e-05 0.011819474
000090 73 df 3a 3e f2 55 c5 bb 02 07 fb bd 6d bc a1 bd
       0.18249302 -0.0060222084 -0.12257196 -0.078972675
0000a0 cb 90 b2 bd 8d 50 64 3d db 37 a7 3d 18 d9 e9 3d
       -0.08719023 0.05574088 0.081649505 0.114183605
0000b0 25 f4 a4 bc 05 6c e0 bd 30 ee ca bd 65 31 e5 3d
       -0.020135948 -0.10958103 -0.09908712 0.11191062
0000c0 bd 1b b7 3d 72 0e da bd 06 20 c2 3d 8d bd 33 3e
       0.089408375 -0.106472865 0.09478764 0.17552777
0000d0 d5 7c 68 3b a7 e3 89 bd ba 77 47 bd 8b c1 56 3d
       0.0035474796 -0.06732874 -0.048698165 0.05243067
0000e0 a5 77 f5 3d de 4d 04 3d dc 0c 3d 3e 9b ee 34 3c
       0.11985711 0.032300822 0.18461937 0.011043216
0000f0 6b fd 15 be 7e 63 13 3e 74 e8 fd bc 82 09 5b bb
       -0.14647453 0.14393422 -0.030994631 -0.0033422415
000100 cb cd 0d be 21 f9 33 bb 5d 83 aa bc d3 3a 9a bd
       -0.13848035 -0.0027461725 -0.020814592 -0.07530751
000110 98 81 dc 3d 93 85 60 3d f4 f3 23 bd cd f2 09 bd
       0.107669055 0.054814886 -0.040027574 -0.03367882
000120 cf da ae 3d 41 08 3a 3d 83 9d 13 be 20 10 00 bc
       0.08537828 0.045418028 -0.14415555 -0.0078163445
000130 be 66 cb 3d e6 d9 dd 3d 73 5e 21 3e 66 20 b9 3d
       0.09931706 0.108325765 0.15758686 0.09039383
000140 e9 90 17 3e 6f e9 0a 3e a9 11 61 3e b5 8e 3f 3c
       0.14801373 0.1356561 0.21979393 0.011691739
000150 08 6b ac bd 32 bb 00 3d ac 69 87 3d 6c db bd 3b
       -0.08418852 0.031428523 0.06611952 0.0057939794
000160 b3 3c 3d be 99 cd 65 bd da 0e a4 bc 89 90 73 bd
       -0.18480186 -0.056104276 -0.020026613 -0.05946401
000170 af bd 7b bd f0 13 8a bc e2 44 8d 3d ec 1c 3c bc
       -0.061460193 -0.01685521 0.06897904 -0.011481505
000180 ba b4 09 be 4b f6 09 3e 07 10 1a be c8 49 e7 bd
       -0.13447848 0.1347286 -0.15045176 -0.112933695
000190 a1 14 83 bd fd 07 22 3e ab 42 b4 3b 13 a7 11 3e
       -0.06400419 0.1582336 0.0055011115 0.1422389
0001a0 b0 63 e1 3d 78 0d ef 3d 39 ac 06 3e 94 b0 0d 3e
       0.11005342 0.11672491 0.13151635 0.1383689
0001b0 52 86 94 bd d3 3a 7a 3d 53 8b de bd b4 7e d0 3c
       -0.07252182 0.061091255 -0.10866418 0.025451042
0001c0 f6 ee ad bc 74 62 db 3c ca 3c 05 3d 79 e8 52 3d
       -0.02123211 0.026780345 0.032528676 0.051491234
0001d0 96 45 72 bd 26 d8 5f 3d 5c 4a 83 3e 31 f7 77 3c
       -0.059148394 0.054649495 0.2564267 0.015134619
0001e0 81 b6 67 bd 85 b3 d4 bd f4 8f d1 3d ff d8 2e be
       -0.056570534 -0.10385803 0.10232535 -0.17074965
0001f0 79 06 c3 bd b3 c9 68 bd 92 54 fa bd 4d 8f b3 3b
       -0.09522719 -0.05683298 -0.12223162 0.0054797293
000200 eb b1 20 3e 0e 75 a5 bb 00 82 b1 bd e5 1b 86 3d
       0.1569287 -0.0050493544 -0.08667374 0.06548289
000210 7e 8b e4 3d 7f 03 2c 3e f3 6d 76 bd 67 b8 11 3e
       0.111594185 0.16798209 -0.06016345 0.142305
000220 61 4c 53 bc b3 ab da 3d 5e 58 fa 3d 6f 6d 27 bd
       -0.012896628 0.1067728 0.12223886 -0.04087585
000230 81 eb 0d 3d 50 e3 16 be 4f 05 64 bd 6b 62 15 3e
       0.034648422 -0.1473515 -0.055669125 0.14588325
000240 d2 29 09 3e eb 2e 1e be b0 8b d3 3d cc 98 11 bd
       0.1339486 -0.15447585 0.10329378 -0.03554611
000250 15 62 a3 3d eb 5e b7 3d 62 1e 9c 3d bf 06 83 bd
       0.07977692 0.08953651 0.076229826 -0.06397771
000260 73 79 b7 3d af 4c 18 3e 53 8e 04 be 03 9f 2d 3d
       0.089587115 0.14873002 -0.12944917 0.042387974
000270 13 7e 5a 3d 47 33 87 3d 45 fe b3 3c 6e 86 b7 3b
       0.05334289 0.06601577 0.021971831 0.005600742
000280 dc 79 81 3d b1 39 4d bd 5d 0e 20 3e ff 33 05 3d
       0.06322071 -0.050103847 0.15630479 0.03252029
000290 b2 fb 8d bd dd e3 70 bd d9 93 de 3c c1 47 f1 3c
       -0.06932773 -0.058811057 0.027170109 0.02945316
0002a0 41 5d 0e 3e 43 1e c5 bd a9 02 e2 3b 5c 9f d8 bd
       0.13902761 -0.096249126 0.00689729 -0.105772704
0002b0 35 ea d4 bb 34 f8 d3 bd 40 06 4f 3e ae 93 87 3d
       -0.006497646 -0.10350075 0.20217228 0.066199645
0002c0 aa f1 b2 bd 89 d4 a0 bd 3d f0 c7 bc 18 f2 97 bc
       -0.087375 -0.07853038 -0.024406547 -0.018548056
0002d0 ca 1d c7 bd 05 6f 07 be 7d 37 14 be 42 f2 f4 3b
       -0.09722479 -0.13225944 -0.14474292 0.0074751684
0002e0 2e c4 8a bd aa 97 81 bd 55 6d 3d 3c 07 cd cb bd
       -0.067756996 -0.06327756 0.011561711 -0.09951215
0002f0 28 b5 8c bd 0c dc c0 3c e0 25 8c be 58 4c 06 bd
       -0.0687049 0.023542427 -0.27372646 -0.03278765
000300 05 e4 ae 3d 09 bc 53 bc a6 80 df 3d 21 24 e2 bd
       0.08539585 -0.012923249 0.109132096 -0.11042047
000310 46 80 5c 3d ca 96 0f 3e 06 2a 6a bd 2a 57 fe bd
       0.05383327 0.14022365 -0.057168983 -0.12418969
000320 fa c2 8c 3d be 25 4c 3e 10 c2 8d 3d b5 aa d4 3c
       0.06873126 0.19936273 0.0692178 0.025960306
000330 69 4e b2 3d 17 75 a3 3d 2f 77 38 3b 19 ce 85 3d
       0.08706362 0.079813175 0.002814721 0.06533451
000340 9d 59 f6 3d df 5d 22 3e 95 2f b6 bd fe f7 17 bd
       0.12028811 0.15856121 -0.08895794 -0.03710174
000350 9e 1c 15 bd 46 78 41 3e e1 64 7e 3d dc 48 69 3e
       -0.036404245 0.18893537 0.062107924 0.227817
000360 40 11 45 be 30 6f 02 be eb e4 d8 3d bd f6 44 3c
       -0.19244862 -0.12737727 0.10590538 0.012021718
000370 23 0c fb 3d 56 3e ce 3c 44 f8 eb 3d e6 89 f8 bd
       0.12258174 0.025176208 0.11521962 -0.12135677
000380 e6 e4 a3 bd d1 f6 a1 bd 1f 00 4c bc cd 6f 72 bd
       -0.08002643 -0.079084046 -0.012451201 -0.059188653
000390 9d d9 1c 3d 5e bc 9d bd 8b d6 7c 3d 6c 6c 79 bd
       0.03829347 -0.07701944 0.06172804 -0.060894415
0003a0 0c f2 5d 3d 18 d6 b2 3d 8d d1 32 3d 87 21 2b 3e
       0.054185912 0.087322414 0.043656874 0.16712008
0003b0 6f 7a dd 3d 52 43 d1 3d 16 67 26 be be 74 a0 bc
       0.10814368 0.102179185 -0.16250262 -0.019586917
0003c0 02 eb f3 3c 0b ec aa b9 db da fd 3c df f8 dc bd
       0.029775146 -0.00032600792 0.030988147 -0.10789656
0003d0 85 ad 3d bd 79 d6 53 3d d2 5a 4d bc 08 a4 13 3d
       -0.04630806 0.05171821 -0.01253386 0.036045104
0003e0 e1 d7 06 3d af bc 98 bd ef 5b 08 be 6e 87 d2 bd
       0.032920722 -0.074578635 -0.1331632 -0.102797374
0003f0 9f 7f 78 3d b3 26 3b bd 08 39 c8 bd ba 66 05 3e
       0.060668584 -0.045691203 -0.09776503 0.13027468

net.0.bias f4 [256]
000000 6b 74 2d 3e b4 2d ab bc d5 7f 22 3e ca 3c 3a 3c
       0.16938941 -0.020895816 0.15869077 0.011367032
000010 1e d3 96 bd 40 60 19 be f9 28 61 3d 4a bc 6e 3d
       -0.07364486 -0.14978123 0.054970715 0.058285035
000020 a6 d0 62 bd f8 a0 17 3b cb bd 13 3d c4 43 43 3c
       -0.055374764 0.0023136716 0.036069673 0.011918012
000030 99 ee 38 3e 76 36 8f 3d 62 b1 cc bb 0e 34 97 3d
       0.18059768 0.069928095 -0.0062467316 0.073829755
000040 fd a7 9d 3d 35 56 25 3d 9e d2 de bd ea 6e ca 3d
       0.07698057 0.040365417 -0.10880016 0.098844364
000050 73 2b b2 3c ff 5b f7 3c b1 04 21 3e 05 cc 1c bd
       0.021749234 0.030195234 0.15724446 -0.038280506
000060 69 99 13 bd df 31 aa bc 69 1c a0 3d 29 36 cb bb
       -0.036034975 -0.020775734 0.07817919 -0.0062015248
000070 d7 ac 09 bd 91 da aa 3d 25 c2 9a 3d 7d 75 55 bc
       -0.0336121 0.083424695 0.075565614 -0.0130285
000080 de 83 f4 3d 1d 9d 09 3e cd 53 03 3d d6 89 d6 3d
       0.11939214 0.1343884 0.03206234 0.10475509
000090 5b 0e 74 bc e9 d7 ed 3c 34 77 cd 3d 92 60 66 3c
       -0.014896001 0.029033618 0.10032502 0.01406111
0000a0 63 cb ad 3d 82 ea a5 bd 41 25 bc bd e3 ea f8 bc
       0.084860586 -0.081013694 -0.09186793 -0.03038544
0000b0 f4 ad 32 3d af 5a 15 3e 2b 17 31 3e 28 8e 5b 3d
       0.043622926 0.14585374 0.17293994 0.053602368
0000c0 90 e2 48 3e 6a 55 7c bd 0e 07 be 3d 84 a9 c2 3a
       0.19617677 -0.061604895 0.09278689 0.0014851545
0000d0 18 ab 19 be c9 9c 52 bd 57 6b 1c 3e ee 2e e6 bd
       -0.15006673 -0.051419053 0.15275322 -0.1123942
0000e0 69 27 a8 bd b6 12 86 3d 22 5b 70 bd e0 9e 12 bd
       -0.08210642 0.065465376 -0.05868066 -0.035796046
0000f0 89 e0 d2 3d cb 65 27 bd 98 d5 f7 3c 39 9a 0b 3c
       0.10296733 -0.04086856 0.030253217 0.008520656
000100 45 2b 25 3d c8 4a f7 3c bd 6b 34 bc c8 03 5f 3e
       0.04032447 0.030187026 -0.011012015 0.21778786
000110 a9 98 32 bb 13 69 c8 bd ca 40 b3 3d 3b 1b 07 3d
       -0.0027251637 -0.09785666 0.08752592 0.032984953
000120 8b 46 96 3d 68 85 91 3d 3f f8 43 3d ee 9b c0 3d
       0.07337674 0.07105523 0.047844168 0.09404741
000130 c1 2e 1a 3c f6 7e 0b bd 41 b3 b5 bd 99 96 e2 3c
       0.009410561 -0.034056626 -0.088720806 0.027659701
000140 87 1d c0 bd e9 62 83 bd a1 54 37 3c d4 4b 1e 3e
       -0.09380632 -0.0641535 0.011189611 0.15458614
000150 61 c3 a5 3d 07 22 84 3d 43 df 72 3d 26 20 d9 bd
       0.08093906 0.06451803 0.05929495 -0.10601835
000160 c6 c3 55 bd 00 50 0d 3e d3 9f 62 3e da df fe bd
       -0.052188657 0.13800049 0.2213128 -0.1244504
000170 8f 45 41 b8 88 65 16 3c b1 a5 b9 3d 9a 60 7d 3d
       -4.6079567e-05 0.00917948 0.09064806 0.061859705
000180 4b e3 c5 bc fe 68 98 3c 11 19 0a 3d 02 d4 e3 bc
       -0.024156233 0.018604752 0.03371531 -0.027811054
000190 8a 77 8e 3d 23 69 7a bd 9e 0e 56 bd b7 bd c7 bd
       0.06956394 -0.061135422 -0.052260034 -0.09752982
0001a0 52 8c ad 3d 1d 0b 55 3e ba bc 89 3d 8e cc 07 be
       0.084740296 0.2080502 0.0672545 -0.13261625
0001b0 68 a3 b0 3b 71 0f 02 3d aa e9 a5 3d ab 46 e0 bd
       0.0053905733 0.031753007 0.081012085 -0.10950979
0001c0 6d a8 94 bd 4a fd b6 3c 90 eb be bc 13 df f2 bd
       -0.07258687 0.022337575 -0.023305684 -0.11858954
0001d0 0d 69 fb 3d de cb b7 3d 3c 58 b9 3c db eb 54 bd
       0.12275896 0.089744315 0.022625081 -0.05198274
0001e0 fd 76 a8 3d 97 0a 6a 3d 1b ac ef 3c b8 de 8b bc
       0.0822582 0.057139006 0.029256871 -0.017073974
0001f0 4b 10 49 bd 4d 80 10 3e fc a4 dc bd cf 80 a7 3d
       -0.049087804 0.14111443 -0.10773656 0.08178865
000200 70 10 57 bd de bd 4b 3d b0 84 b1 bd 1c 61 13 be
       -0.05250591 0.04974162 -0.08667886 -0.14392513
000210 00 17 9d bd 9a dd 4c 3d ae ed e6 bc f3 1a 81 bd
       -0.076704025 0.050016023 -0.028189506 -0.06303968
000220 55 08 46 bd 3d 5f 36 bd c1 25 81 3d f3 04 38 bd
       -0.04834779 -0.04452442 0.06306029 -0.044926595
000230 43 2e 63 bd e9 81 d2 3d 85 90 ca 3d 6e f6 e0 3d
       -0.05546404 0.10278685 0.09890846 0.10984503
000240 72 81 d0 3c 7c ea fa bd 5d cb ad bd 8a dc 13 3d
       0.02545235 -0.122517556 -0.08486054 0.036098994
000250 64 7e 02 3e f9 e8 0f 3d 26 ab c1 3d 7f 0a 30 3e
       0.12743527 0.03513429 0.09456472 0.17191504
000260 39 f3 45 3e d4 53 83 bd d1 7b b7 bd d9 b1 3e 3d
       0.19331063 -0.06412473 -0.08959163 0.046556327
000270 3f 51 bd bd 09 b1 90 bd 23 ad de 3c db d7 27 3e
       -0.09244012 -0.07065017 0.027182167 0.16390936
000280 06 84 8d bd 8c 11 fa 3d da 55 17 3e 9d 90 e6 3d
       -0.06909947 0.12210378 0.14778844 0.112580515
000290 7a 7d 38 bc f5 92 6e 3d 7d e3 95 bc 55 35 59 3d
       -0.011260385 0.058245618 -0.018296951 0.053029377
0002a0 b7 4f 63 3e ec 29 1c 3e ec 5f 0c 3e 92 ca a5 3d
       0.22198378 0.15250367 0.13708466 0.08095278
0002b0 1f 5f db bb 96 60 fc 3c 31 a3 ce 3d ed 10 7f bd
       -0.006694689 0.030807775 0.1008972 -0.062272
0002c0 71 73 23 bc 50 ab 1c 3d 2d 02 15 bc e4 99 cd 3c
       -0.009976254 0.038249314 -0.009094757 0.025097795
0002d0 50 49 19 bd 87 01 a5 3d 39 0f fe bd 25 02 73 3d
       -0.037423432 0.08056932 -0.12405247 0.059328217
0002e0 e8 81 56 3e 04 48 64 3d a8 71 97 bd 02 d6 d1 3c
       0.20947993 0.055732742 -0.07394725 0.025614742
0002f0 3b c7 ea bd bc ef 3d bd 01 d6 7c bc ca 20 99 bd
       -0.114637814 -0.046371207 -0.015431882 -0.07476957
000300 c1 e2 aa bd f1 cb e4 bc db 79 87 bc c7 a3 df bc
       -0.08344031 -0.027929278 -0.016537597 -0.027299775
000310 5d 72 97 3d 4c 00 80 3d d6 12 24 bd 81 f2 1e 3d
       0.0739486 0.062500566 -0.040057026 0.03880549
000320 47 80 9d 3d 92 c9 8c bd c1 04 2e bd a1 d8 21 3e
       0.076904826 -0.06874384 -0.042485002 0.15805294
000330 7b 65 30 3e 04 5f 02 be ad b1 1c bd 33 26 d9 3c
       0.17226212 -0.12731558 -0.038255382 0.026507473
000340 04 1b 55 3d 13 99 c7 3d fa 86 fb bd c1 b1 11 3e
       0.052027717 0.097459935 -0.12281604 0.14227964
000350 e5 db 94 bd f7 79 ca bd 5d 8e ff bc 1d e7 f3 bd
       -0.07268504 -0.09886544 -0.031195814 -0.11909316
000360 54 f9 b1 bd d6 12 bd 3d a7 48 29 3c d6 84 7f bd
       -0.08690134 0.09232108 0.010332263 -0.06238254
000370 3f a3 f4 3d c9 55 3c bd 5e 75 53 3d 82 15 f7 3d
       0.11945199 -0.04598025 0.051625602 0.12064649
000380 42 28 e4 3d 4f cd 38 3e cf 2e b7 3d 99 23 fc bc
       0.11140491 0.18047069 0.08944475 -0.030778693
000390 f7 83 1a 3c 64 82 d4 bd 3d 41 ef bd 96 99 11 3e
       0.009430877 -0.103764325 -0.11682365 0.14218745
0003a0 4e 7b e8 bd a3 b1 54 bc d6 7c ee bc 11 75 ce 3d
       -0.113516435 -0.012981805 -0.02911226 0.100809224
0003b0 fb d7 65 bd 7a 87 2f 3e 9a 77 2c 3e 14 60 0f bd
       -0.05611418 0.17141524 0.168425 -0.035003737
0003c0 67 c1 88 3d 38 31 b3 3d 29 9e 6a 3d f9 f5 25 3e
       0.066775136 0.08749622 0.05727974 0.16207112
0003d0 5a 53 31 3e 07 4a 6e bd 8d 1f 16 bd 53 a9 04 3d
       0.17316952 -0.058176067 -0.036651183 0.032388043
0003e0 af 2d db 3d aa 7c 60 bd ff 56 91 bc 64 b3 cf 3d
       0.10702073 -0.05480639 -0.017741678 0.10141638
0003f0 dc 1d 42 bc b8 e8 a9 bb 0a 34 cc 3d ef 54 06 bd
       -0.011847939 -0.005185213 0.09970863 -0.032795843

net.2.weight f4 [256, 256]
000000 f7 e1 58 3c dc 88 6d 3d c8 ca 60 3d 55 93 80 bd
       0.013237468 0.057991847 0.054880887 -0.06278101
000010 a6 65 8a bc 22 3b ba 3c 60 c5 9e bd c4 d1 87 3d
       -0.016894173 0.022733275 -0.0775249 0.066318065
000020 9b 01 0a 3d 25 f0 95 3c 49 63 52 3d 4f ab 66 3d
       0.033692937 0.018302986 0.051364217 0.056315716
000030 3b 42 ac bc 31 82 dc 3c a6 97 87 3d c6 43 2c bd
       -0.021027675 0.026917549 0.066207215 -0.04205682
000040 4f 8b 03 bd 6c 25 85 bd 6a fc a8 bd e3 80 0b bd
       -0.032115277 -0.06501278 -0.08251269 -0.034058463
000050 00 cd 0b bd 05 f5 0d 3c 35 72 d2 bc ea 3b d0 bc
       -0.03413105 0.008664374 -0.025689224 -0.025419194
000060 ae af 3b 3d f1 66 ae 3c c5 0d ca 3b 52 1d 9d 3d
       0.045821838 0.02128932 0.0061661922 0.07671608
000070 f0 41 7e bd 16 21 e5 bc b3 a5 b8 3d 84 6b 1a 3d
       -0.0620746 -0.027969878 0.090159796 0.03770019
000080 d4 ba 63 3d 01 dd d1 bc e7 e3 34 3c 39 64 81 bb
       0.055598095 -0.025618078 0.011040664 -0.003948715
000090 f3 dc a0 bd 0c 55 39 3b 2c 47 e9 bc f5 02 1f 3c
       -0.07854643 0.0028279452 -0.02847632 0.009705295
0000a0 ab b9 47 3d 22 b2 3a 3d a0 1d 63 3d e2 0b 94 bb
       0.04876105 0.045580037 0.055448174 -0.004518018
0000b0 8f 68 09 3d 4a 2c 22 3d 61 62 4a 3d a8 71 8b bd
       0.03354698 0.03959302 0.049410228 -0.068087876
0000c0 15 94 44 3c b2 78 c6 bc ac 2d 92 bc f3 c4 46 bd
       0.011998196 -0.024227474 -0.017844044 -0.04852767
0000d0 e6 72 91 bd e0 3c 62 3d 93 29 75 3d e4 62 7a bd
       -0.07101993 0.055233836 0.0598541 -0.061129466
0000e0 fb cf 30 3c 91 bc 30 3d db 66 52 3d 4c 2a 28 bd
       0.010791774 0.04314858 0.051367622 -0.041055962
0000f0 99 5c c1 bb 81 51 fa bc 81 98 c4 3c 4e 5c bc bc
       -0.005900931 -0.030556442 0.0239985 -0.022993233
000100 69 03 8a 3a 42 e9 a8 bc 05 ce 2f 3d 0b 82 86 3c
       0.0010529581 -0.020619038 0.042921085 0.016419431
000110 19 f9 e1 3a 9b 43 cb 3b 40 33 89 3d b4 68 60 bd
       0.0017240375 0.0062031276 0.06699228 -0.054787353
000120 88 bc 6b 3c f0 6f 75 3c c3 c3 44 bd d9 2d 46 3c
       0.014388211 0.014980301 -0.048038255 0.012095892
000130 79 88 a4 bd cd 66 b9 3d 65 e1 38 bd 0f cd f8 bc
       -0.080338426 0.09052811 -0.045136828 -0.030371217
000140 02 5a 99 3d a8 77 c2 bc d9 6a c0 3c df 40 54 bc
       0.07487871 -0.023738697 0.023488449 -0.01295492
000150 c1 23 81 bd 1e 2d 51 3d 78 7c 37 3d 3f 54 2c 3d
       -0.06305648 0.051068418 0.044796437 0.04207253
000160 5b c6 23 bd 9d 7e 1c 3d f8 50 9b bc 77 e7 32 3d
       -0.03998409 0.038206685 -0.018959507 0.043677773
000170 e4 ac 88 3d 4a 8a 4a bd 39 4c 24 3c f8 bf 8e bd
       0.06673601 -0.04944829 0.0100279385 -0.06970209
000180 ff 26 29 bd fa b4 4a 3d 5c 88 0b 3d 52 3b 56 3d
       -0.041296955 0.049489 0.03406559 0.052302666
000190 bb c0 2a bb 80 8f 8e bc 59 38 41 bd 01 53 a6 bd
       -0.0026054818 -0.01740241 -0.047172878 -0.081213005
0001a0 2e 32 68 bd 6c 33 a9 3c 74 51 4e 3d 7e 8f 93 3b
       -0.05668848 0.020654403 0.05037065 0.0045031896
0001b0 9a 30 2e bd 4d 01 99 3d d0 21 10 3d a0 2f d9 bb
       -0.04252682 0.07470951 0.035188496 -0.006627992
0001c0 d5 4d 5b bc fb ad 13 3d 4a 39 0d 3c ab da fa 3c
       -0.013385256 0.036054593 0.008619616 0.030621847
0001d0 e8 e5 54 3d 48 60 b1 3c b1 f7 cc 3c 6a 82 39 3d
       0.05197707 0.021652356 0.025020452 0.04529039
0001e0 e9 8b 89 bd 68 ab bc 3d e2 49 36 bd 43 4e aa bc
       -0.06716139 0.09212381 -0.044504054 -0.020789271
0001f0 3e 5a 2b bd ed 90 c1 3d 64 5e 8e 3d a8 6d c8 3d
       -0.04183411 0.094514705 0.06951597 0.0978654
000200 0a 69 3f bc 94 3e db bc cf b9 fd 3c 61 64 aa bd
       -0.011682758 -0.026763238 0.03097239 -0.08319927
000210 01 90 f2 bb 31 37 d3 bc b5 6f ab ba 25 d0 06 bd
       -0.0074024205 -0.025783153 -0.0013079556 -0.032913346
000220 ff 60 34 bd e5 11 4d be 8d f3 95 bc 50 42 0d 3d
       -0.044037815 -0.20026357 -0.01830461 0.03448707
000230 59 66 20 bd ac 5c 3d bd 94 eb 7a 3c 01 bf 17 bc
       -0.039160106 -0.046230957 0.015314955 -0.0092618475
000240 73 e2 43 3d 60 ac 09 3e a1 b4 00 bd 31 dc 88 3b
       0.04782338 0.13444662 -0.03142226 0.0041766395
000250 e7 df 88 3d 25 d2 a9 bd dc 71 0b 3d 06 ff 55 3d
       0.06683331 -0.08292035 0.03404413 0.052245162
000260 e8 84 a7 bd 7d eb 9d bd 40 8a 2a 3d e7 28 17 3c
       -0.08179647 -0.077109315 0.04163575 0.0092260605
000270 1c b8 5c 3d a0 ae 6a bb 1b fb 53 3c 47 a4 0b 3c
       0.053886518 -0.003580965 0.012938286 0.0085230535
000280 da 01 62 bd 44 e2 84 3d 31 f1 86 3d 63 d5 cb bb
       -0.055177547 0.06488469 0.06588972 -0.006220506
000290 ed f2 46 3b 33 45 94 bd 6d 17 b7 3d 7a f9 80 3c
       0.0030357197 -0.07239761 0.08940015 0.01574396
0002a0 2d 82 22 bd 6d 6a 1a 3d 15 71 81 bc 90 14 8f 3d
       -0.039674927 0.03769915 -0.015800992 0.06986344
0002b0 6f b3 4b 3d 4f ef 22 3c aa fc 93 bd 9d 68 9c 3c
       0.049731668 0.009944751 -0.07225926 0.019092852
0002c0 cc a4 3f 3d a3 bc 07 3c 1d 6a bb bd c9 a9 12 bd
       0.046788022 0.008284721 -0.09151099 -0.03580645
0002d0 8e 19 7e bd e4 d0 08 3c 6b 23 58 bc 73 70 3d bc
       -0.06203609 0.008350585 -0.013192038 -0.0115624545
0002e0 9b c3 cf bb 47 fc bb bc d7 a1 80 3a 8e e7 86 3d
       -0.0063404567 -0.022947444 0.0009813857 0.06587134
0002f0 12 e7 f2 3c 14 d1 1f bd 5c ae 65 3d 92 8a 63 3c
       0.029651199 -0.03901775 0.056074485 0.013888018
000300 59 fe 5d bd 8c b8 b7 3c 3b 4f a4 3c 8e f9 7e bd
       -0.054197643 0.022426866 0.020057311 -0.062249713
000310 dc a6 aa bb 48 54 58 3b c2 2d 23 bb df da 33 3d
       -0.0052078795 0.003300922 -0.00248991 0.043909904
000320 4b 0d 64 bc cc 59 fa bc 31 fd 57 3b c3 fb 92 3c
       -0.013919185 -0.030560397 0.003295731 0.017942315
000330 37 83 06 3d 7f 25 9c bd 48 cd a6 3b 69 14 3d 3d
       0.03283998 -0.07624339 0.0050903894 0.046162043
000340 80 c4 ed 3c 94 29 e4 bc 46 ee a5 bd b9 29 24 bd
       0.029024363 -0.027851857 -0.08102088 -0.040078852
000350 13 61 2d 3d 24 70 e7 bc ff bc b6 bd 3f a2 cf bc
       0.042328905 -0.028251715 -0.08922767 -0.02534592
000360 e5 54 d8 3d 83 f5 c4 3c e2 ec ae 3d 12 f5 22 3d
       0.10563067 0.02404285 0.085412756 0.0397845
000370 05 53 a0 3d 54 5a 1d 3d 9e 54 fe bc 13 5f 30 3d
       0.07828335 0.03841622 -0.031046208 0.04305942
000380 64 e1 3b bd 7a 63 4f 3d 0f fc 33 bc 5c 2d 6a bd
       -0.045869246 0.050631978 -0.010985388 -0.057172164
000390 4c 12 92 bd e9 b5 cf bd 0a b6 37 bc fd c7 97 3c
       -0.07132396 -0.101421185 -0.011212835 0.018527979
0003a0 08 a3 74 bc a2 3c 00 bd b5 c2 93 bd bf 81 2d bc
       -0.014931448 -0.031307824 -0.07214872 -0.010590016
0003b0 da 1e 16 bc eb ed 9e 3d 69 0e f8 bd 1f 0a 45 bd
       -0.009162629 0.07760223 -0.121121235 -0.048105355
0003c0 c2 f6 85 3d 96 65 a6 bd 11 19 c1 bd 16 5a 68 3d
       0.06541206 -0.08124845 -0.09428609 0.056726538
0003d0 68 c1 be 3b e7 e9 54 bd 66 f6 37 3d ff 5d 4c bc
       0.0058213957 -0.05198088 0.04491272 -0.012473582
0003e0 fd bf 7f bd 3e 89 66 3d e3 a2 1f bd 66 45 12 bd
       -0.062438954 0.056283228 -0.0389737 -0.035710715
0003f0 7f a0 d5 3c 9d 48 e1 bb cd 28 69 3d 79 c0 99 bc
       0.026077507 -0.0068751113 0.056923676 -0.018768536

net.2.bias f4 [256]
000000 be 63 dd 3c 86 67 58 3c 64 48 27 bc dd 54 2a bc
       0.0270251 0.013208276 -0.01021013 -0.01039621
000010 f4 33 43 bd 7b d8 16 bd 3f 62 81 bd 36 8d 8b 3d
       -0.04765697 -0.036827546 -0.06317567 0.06814043
000020 4a 26 25 bd 5d ae 2d 3d 36 ca 0b bb 52 2e 89 3d
       -0.04031972 0.042402614 -0.0021330244 0.06698288
000030 ee af f2 3b 70 f3 b9 3c da e4 3e 3c 83 13 54 bd
       0.0074062264 0.022699088 0.011651242 -0.05177642
000040 2b e0 a4 bc 3b b9 3e 3d d7 c9 88 bc ac 7a b0 3c
       -0.020126423 0.04656337 -0.016697807 0.02154287
000050 bc cf e5 3c f9 61 5e bc f5 69 94 3d 3d 9d 23 3d
       0.028053157 -0.013573163 0.07246772 0.039944876
000060 43 a0 a4 3c bd 4e 2d bd 55 f1 25 bc 08 42 3a 3d
       0.02009595 -0.04231142 -0.010128339 0.04547313
000070 4e 5c 08 bd 32 99 12 3d db 46 72 bd fb cf 3f 3d
       -0.033291154 0.03579063 -0.059149604 0.046829205
000080 c7 86 e0 ba aa b4 32 3d 0c 9b b3 bc 1b 05 78 3b
       -0.001713001 0.043629326 -0.021924518 0.003784484
000090 3a 21 44 3d 6e e3 2f 3d 3d f8 05 bd 59 57 02 3c
       0.04788325 0.042941503 -0.03270744 0.007955396
0000a0 c4 2b cf bc b4 d7 02 bd 13 95 86 3d 5d 2e 41 3d
       -0.025289424 -0.03194399 0.065714024 0.047163356
0000b0 62 27 8b 3d b5 10 1e 3c b8 0e 1b 3c cd 7f 84 3c
       0.06794621 0.009647538 0.009463958 0.016174221
0000c0 fe 7c ab bc 68 94 27 3d 83 48 16 bc fd 1e b1 3d
       -0.020933624 0.040913016 -0.009172562 0.08648489
0000d0 2f 47 84 3d ff 02 15 3c 3a c8 4a 3d 5a 77 94 3d
       0.0645889 0.009094953 0.049507357 0.07249327
0000e0 9b de a9 3d 2e d8 08 bd df a2 8b 3d 0b 72 80 3b
       0.08294412 -0.03340929 0.068181746 0.003919845
0000f0 33 42 21 bc d9 9c 8f bc c6 8a 99 3d ce 7b 72 3d
       -0.009842443 -0.017530845 0.07497172 0.0592001
000100 a3 b4 d1 3c a4 c6 00 bc 87 00 80 bb 6c 50 57 3d
       0.02559883 -0.00785986 -0.003906313 0.05256693
000110 36 b9 76 3d ce c8 82 bd 68 6c 87 3c 5c 38 9f 3d
       0.060235225 -0.06385957 0.016531184 0.077744216
000120 5a de 3f 3d 3a b3 8b 3c 06 75 08 bd a1 f1 7e 3d
       0.04684291 0.017053235 -0.033314727 0.062242154
000130 b1 66 f1 bc ff 70 28 3d 5f 4a 63 3c ea 76 56 3d
       -0.029467912 0.041123386 0.013872712 0.0523595
000140 41 95 3f bd bc 9e 34 3d bb 81 19 bd 8f 98 60 3d
       -0.0467732 0.044096693 -0.037477236 0.05483299
000150 25 e3 b2 3d 2c 4b c4 bb d8 4f 82 3d 9d 3a bc bc
       0.08734731 -0.0059904065 0.06362885 -0.022977168
000160 ac 5f 2e 3d 78 60 16 3d 34 05 be 3d 15 87 c1 bc
       0.04257171 0.036713094 0.09278336 -0.023623982
000170 8c 0a d5 bc 97 6e 8e 3d 67 e5 aa bb 33 ad e0 3c
       -0.026006006 0.06954687 -0.005215335 0.027426338
000180 a5 e4 50 3d c8 ed 88 3d ff 80 46 bc 27 45 3b 3d
       0.050999302 0.06685978 -0.012115716 0.045720246
000190 9a f3 80 3d a2 30 ee bc 30 bd 78 3d 81 3e 74 bd
       0.06296463 -0.029075924 0.0607273 -0.05962992
0001a0 2a 9f 2a 3c 04 50 22 3c ce 69 8a 3d e3 43 76 bc
       0.010413924 0.0099067725 0.06758462 -0.015030834
0001b0 48 47 53 bd 55 49 57 3c ba 64 09 3c 56 9e 87 3d
       -0.05158165 0.013140042 0.0083858315 0.06621997
0001c0 38 a7 05 3d 22 96 1c bd 2d c0 db ba fb d4 92 3d
       0.032630175 -0.038229115 -0.0016765647 0.07169529
0001d0 c0 fc d5 bc 8c 70 d4 3c 7e b1 9f 3c 6b 12 ed b9
       -0.026121497 0.025932573 0.019493815 -0.00045217885
0001e0 17 b0 68 bb e8 91 e8 bc 37 0c 69 3d 9a b1 99 3c
       -0.0035505348 -0.028389886 0.056896415 0.018761445
0001f0 53 9a b7 bc 53 d9 38 3d bb 4f 8c 3d 63 c2 cc 3c
       -0.022412455 0.04512913 0.06851145 0.024995035
000200 0e eb 5e bc d1 2e d5 bb 7d a4 bd 3c b8 18 44 bd
       -0.013605846 -0.006505825 0.023149723 -0.047875136
000210 12 01 03 ba 01 e2 fa 3b fb f9 1d 3d 29 3b 1d 3d
       -0.0004997413 0.0076563363 0.038568478 0.038386498
000220 57 40 5d bd 69 fe 6a bc 70 79 4a 3c 28 0a 2b bd
       -0.054016437 -0.014342883 0.0123580545 -0.041757733
000230 09 3b a1 bb 20 7c cf 3c 27 fb 1d ba 7d 1a 8b 3d
       -0.0049203676 0.025327742 -0.00060264993 0.067921616
000240 84 d0 30 bc f4 e8 63 bc de cd 81 3d 18 6d 09 3d
       -0.0107919015 -0.013910521 0.06338094 0.033551306
000250 82 56 94 3d 4d 32 64 3c b2 b0 d3 3b 7e 79 57 3d
       0.072430626 0.013928008 0.0064602727 0.0526061
000260 2e ff 81 3d c7 c3 42 bd 03 87 46 bc 47 d8 1a 3c
       0.063475 -0.04754999 -0.01211715 0.009450979
000270 db 74 05 3d f3 f2 02 bc 9d 6f f4 3c 76 66 bf bc
       0.032582145 -0.007992494 0.029838378 -0.023364287
000280 9f 90 09 bd 02 85 0c bd 26 3c d0 bc 4e ad e5 bc
       -0.033585187 -0.034306534 -0.025419306 -0.02803674
000290 d5 d2 20 bd 46 ea c7 bc e4 ad f1 3c a9 4d 19 3c
       -0.039263565 -0.024403702 0.029501863 0.0093568945
0002a0 85 9c 18 bd 56 b7 76 b9 68 97 fb 3b fe 4f 56 3d
       -0.037258644 -0.00023528686 0.007677961 0.05232238
0002b0 a1 4a af 3d d3 b3 9b bc fe 04 13 bd e0 d4 b9 3c
       0.08559156 -0.019006645 -0.035893433 0.022684515
0002c0 43 de cb 3d 66 5c b8 3c 59 a5 9e 3d 27 b7 f3 3c
       0.099545024 0.022504997 0.07746381 0.02975042
0002d0 02 57 8d bc 09 66 89 bd dc 8c 57 bd 05 d4 c8 bc
       -0.017253403 -0.06708915 -0.05262457 -0.024515161
0002e0 7c 43 f8 3c bb f8 8f 3d b2 6a 62 bd 16 b0 df bc
       0.030305617 0.070298634 -0.055277534 -0.027305644
0002f0 92 87 1c 3d c7 50 82 bb 58 af 5d bd 83 da a0 3d
       0.038215227 -0.0039769146 -0.0541223 0.07854178
000300 15 5e 3d 3c ed a1 88 3d 8e 47 4f bd d7 b0 83 bd
       0.011558075 0.0667151 -0.05060535 -0.06430214
000310 5b 85 cf bc 58 29 16 bd ed 6b f1 bb 73 8e 0c bd
       -0.025332144 -0.036660522 -0.007367602 -0.034315538
000320 42 17 f1 bc 9c e5 8d 3d 7d cc e0 3c cc 5d 51 bc
       -0.029430036 0.0692856 0.027441258 -0.012778711
000330 05 ad ff bb 2e ec 1f 3d f4 e7 55 3d a3 44 07 3d
       -0.007802608 0.039043598 0.05222316 0.03302444
000340 c7 f2 82 3d 18 43 6d 3d 66 11 54 3d 6c cd 76 3c
       0.06393962 0.057925314 0.051774405 0.015063625
000350 4a ba fa 3c 29 98 42 3c fc e8 a1 3d d2 0a 48 3c
       0.030606408 0.011877098 0.07905766 0.012209611
000360 da 4d 25 bc 07 4a 75 3c b8 c8 f9 bb 10 a6 7e 3d
       -0.010089362 0.014971263 -0.0076228045 0.06217009
000370 7e ad 24 3d e8 22 44 3d 94 a6 3f 3d db 0c aa bc
       0.040204518 0.04788485 0.04678972 -0.020758083
000380 36 d2 9a 3c 93 c9 35 3c 58 cf 97 3d 46 6e 91 3d
       0.018899065 0.011095422 0.074125946 0.07101111
000390 7a b7 59 3d 9c 87 92 3c 78 2e 68 bd 4f 60 8a bd
       0.053153493 0.01788693 -0.05668494 -0.06756651
0003a0 db 23 5e bb 18 16 24 bd f8 d9 49 3d 55 c1 ad bc
       -0.0033895883 -0.040060133 0.049280137 -0.021210352
0003b0 f6 f8 da 3c 50 85 22 3c 1d 4c 4b bc 0e 34 f5 bc
       0.026730042 0.0099194795 -0.012408284 -0.029932048
0003c0 af 0b d7 3c 7c f8 a7 3d ee fa 8a 3d dd 1c c8 3d
       0.026250688 0.082016915 0.06786142 0.0977113
0003d0 67 6a 93 3d c7 01 d0 3c 15 19 33 bd e4 1f 82 3d
       0.07198029 0.025391473 -0.043725092 0.06353739
0003e0 ac fe e9 bb 6a 55 2c bd ae 04 06 3d 2b ca 12 3c
       -0.007140955 -0.042073645 0.032719307 0.008959333
0003f0 75 6f 87 3d 85 a6 88 3d 06 7e 83 3c 40 9c 6f bc
       0.066130556 0.06672386 0.016051304 -0.014624655

net.4.weight f4 [24, 256]
000000 3e 06 30 bd e8 4e 9b 3b 49 5a 21 bd a5 b2 95 3d
       -0.042974703 0.004739631 -0.039392743 0.07309464
000010 bd d1 22 3d 36 7d 98 3d 1a 14 32 bd 5c 0b 26 bd
       0.039750803 0.07445757 -0.0434762 -0.040538177
000020 fc 6b 77 bd 79 43 42 bc 48 80 fb 3d 39 82 8c bd
       -0.060405716 -0.011856907 0.12280327 -0.068607755
000030 33 c1 c0 bc 94 91 8f 3d 7a 43 99 bd 16 04 1f 3d
       -0.023529625 0.07010189 -0.07483573 0.038822256
000040 06 e6 1c bc 6f e7 6f bd 2d 19 14 bd ac 77 e7 bb
       -0.009576326 -0.05857032 -0.036156822 -0.0070638265
000050 95 82 cc 3c 83 c1 04 3c e4 10 8f bd 06 eb 86 3d
       0.02496461 0.008102777 -0.069856435 0.06587796
000060 79 56 82 3c e3 19 bc bb a2 b1 d7 3b 0c 03 0f 3d
       0.015910374 -0.0057403906 0.006582455 0.034915015
000070 1e 79 33 3d 4b 0d 48 bd d9 a0 76 3b ac 10 dd 3c
       0.04381668 -0.048840802 0.0037632494 0.026985489
000080 af 03 16 be 84 0e 06 bc 25 46 27 3a 26 3f 85 bd
       -0.14649843 -0.008182172 0.0006380997 -0.06506185
000090 c7 ec 81 3d d6 29 bd bb 20 37 2d bd 59 1f b9 3c
       0.0634399 -0.0057728095 -0.0422889 0.022597956
0000a0 ea f8 8b bd 65 02 4c bc 9d 43 58 bd 48 5d 58 3d
       -0.06834586 -0.012451743 -0.052798856 0.052823335
0000b0 9a 62 65 bd 8d 1d 75 3d c5 c2 05 be 91 a3 84 bd
       -0.056002237 0.059842635 -0.1306258 -0.0647651
0000c0 e8 9a d9 3d a2 3f 02 3d 8d 32 70 bd bc 50 fe bc
       0.10625249 0.031798966 -0.05864196 -0.031044357
0000d0 30 7a 79 bc 7d b4 11 3e 25 9d 18 bc ac 8e aa bc
       -0.015226886 0.14229007 -0.00931481 -0.020819984
0000e0 44 60 3a 3d 5f 8e 48 bd 02 50 6d bd 71 b2 c6 bc
       0.045501962 -0.0489639 -0.05793763 -0.02425501
0000f0 e0 19 4f 3b 07 25 20 3c 60 9a 2e 3d c1 7d 83 3d
       0.0031601116 0.009774453 0.042627692 0.0642047
000100 1a c6 25 3d 78 01 33 bd 1a fc df bc bd 18 0a bd
       0.040472127 -0.043702573 -0.027341891 -0.033715
000110 28 96 2f 3b 8a 51 98 bc 6c f4 24 3d 6f 87 ae bc
       0.002679238 -0.018593568 0.04027216 -0.021304814
000120 f2 7e e0 bc 27 a4 36 bd 83 ea 41 3d 47 f2 d9 3c
       -0.027404282 -0.04459014 0.04734279 0.026604785
000130 15 06 14 3c 42 c2 32 3d df 6e ac 3b 99 88 95 3d
       0.009034653 0.04364229 0.0052622403 0.073014446
000140 c9 da cc bc 60 07 e0 3c 9b 46 bc 3d ff 13 14 3d
       -0.025006669 0.027347267 0.091931544 0.036151882
000150 dd a8 94 bd ca 3b 0d 3d ed 58 dc bd 3f ef 8f 3c
       -0.072587706 0.034480847 -0.10759149 0.017570136
000160 70 39 8f bd 93 c3 46 3d 0e 15 a0 bd 02 49 90 bc
       -0.06993377 0.048526358 -0.07816516 -0.017612938
000170 59 ea fd 3c 19 c9 6d bd 1f d0 de 3c df 53 36 3e
       0.030995535 -0.05805311 0.02719885 0.17805432
000180 a4 b5 cd 3c b1 1e 87 3d e3 fa dc bc 46 cd c4 3b
       0.025111027 0.06597651 -0.0269751 0.006005916
000190 df 0c a6 bd 13 b8 04 bd 09 21 87 bd d0 a2 8f bc
       -0.08107924 -0.03240211 -0.06598098 -0.01753369
0001a0 b0 40 d5 bd bf 56 8e bd c8 52 9c 3c 5d b8 b2 bc
       -0.10412729 -0.06950139 0.019082442 -0.021816427
0001b0 0a be 18 bb 9d 66 29 bd 92 c7 1c 3d 99 97 85 bd
       -0.0023306631 -0.041357625 0.038276263 -0.065230556
0001c0 11 56 8e bd 3d f4 d8 bd 8d 3d 2e bd 9d e3 c4 bd
       -0.069500096 -0.1059346 -0.04253917 -0.09613726
0001d0 7e 6b 8f bd b5 6f f5 3b 62 6f 69 3d 82 83 bb bd
       -0.070029244 0.007490123 0.05699099 -0.091559425
0001e0 29 80 08 3c f3 c6 76 3d b0 76 ba 3c 99 59 cd 3c
       0.008331337 0.060248327 0.022761673 0.025067138
0001f0 db 32 18 3e b7 c5 86 3c f0 70 c0 bd 95 8c f8 3c
       0.1486315 0.0164517 -0.09396541 0.030340472
000200 f2 8e 8f 3c 95 c2 f3 3c 5f 6c 85 bd 81 fb 6d 3d
       0.017524216 0.02975587 -0.06514811 0.05810118
000210 1c e9 11 bd d2 a5 8b 3d f5 67 e5 bc cc c8 ae bc
       -0.0356227 0.06818737 -0.028003672 -0.021335982
000220 76 56 df 3c 6f 83 fe bc 81 73 8e bd 09 11 96 3d
       0.027262907 -0.031068532 -0.06955624 0.07327468
000230 24 37 90 3c a0 d0 c8 bc 96 e9 50 bd c6 c1 d3 3c
       0.017604418 -0.024513543 -0.051004015 0.025849234
000240 7a 86 5a bd 5f 0b 8c bc 3c ef 78 3d 09 bc b7 3c
       -0.053350903 -0.017095266 0.060775027 0.02242853
000250 89 f3 33 bd 98 c2 eb 3c ac 6d c5 bc a1 5a 8e bd
       -0.043933425 0.028779313 -0.024100147 -0.0695088
000260 d4 24 24 3d 6b e4 97 3d 02 fc db bd 84 d6 df bd
       0.040074185 0.07416614 -0.10741426 -0.109295875
000270 0e a8 0f 3c c7 ba da 3d af fb 0b bd f0 25 f6 bc
       0.008768095 0.10680156 -0.03417557 -0.030047387
000280 f6 4a 4f bd fe bd 18 bd e8 45 e9 bd 6a 13 be 3c
       -0.050608598 -0.037290566 -0.11390287 0.023202617
000290 be 5e f5 3c b8 18 3f 3d 5d e3 e6 39 e3 0a 83 bd
       0.029952403 0.046654433 0.00044038417 -0.06398561
0002a0 18 cc 17 bd 76 f3 50 3d 0b 56 c0 bc b9 f1 ba bd
       -0.037059873 0.051013432 -0.023478528 -0.09128136
0002b0 33 c7 ea bd 07 ed a7 3d fe f6 8c bb ae 0c c5 3d
       -0.114637755 0.08199506 -0.0043019047 0.09621559
0002c0 bb 7c 99 bd 01 12 04 be 29 80 94 3c bf 5c 08 bd
       -0.074944936 -0.12897493 0.018127518 -0.033291575
0002d0 85 56 8b bd 16 e1 b7 3c 00 50 92 3b 35 cc 3d 3c
       -0.06803612 0.022446197 0.004465103 0.011584331
0002e0 43 38 e8 bc f8 78 93 3d ef 15 24 3d 10 0b aa bc
       -0.02834714 0.07200807 0.04005998 -0.020757228
0002f0 65 9b 40 3d 06 6c 75 bd 5b 1b ea bc 17 74 06 bd
       0.047023196 -0.059917472 -0.028577497 -0.032825556
000300 c0 b0 d9 bc 25 54 13 bd 88 75 d9 bc 99 49 d9 3c
       -0.026573539 -0.03596892 -0.026545301 0.026524352
000310 75 4d 3e bd 6c fa aa 3d 85 79 44 3d 9c ff a6 3d
       -0.046460588 0.083485454 0.047967453 0.08154222
000320 12 e9 8c bd a3 f0 c3 bc 31 e6 93 3d 39 cb d5 3d
       -0.06880392 -0.023918455 0.0722164 0.10439152
000330 97 81 40 3d bb fd 16 3d c4 a7 98 bc 97 65 35 3c
       0.046998587 0.03686307 -0.018634684 0.011071584
000340 11 c4 b6 bc c0 a0 cc bc 02 8d 57 3d 31 c9 50 3d
       -0.022310289 -0.024978995 0.05262471 0.05097312
000350 62 92 2e bb 3e 58 ef bc ab c8 60 be c9 d4 1a 3e
       -0.0026637544 -0.029216882 -0.21951549 0.15120234
000360 4d 98 4f 3d ff 88 37 bc 49 1a d1 3d 6d 9d c5 bc
       0.050682355 -0.011202096 0.102100916 -0.024122918
000370 72 1a b2 3c 26 3e 27 3d 7d 8f 39 bd ef 45 84 bd
       0.021741126 0.040830754 -0.045302857 -0.06458651
000380 95 5c 15 bd a5 cd c1 3c 30 05 8b bd 6b 3c 4c bb
       -0.036465246 0.02365763 -0.06788099 -0.0031163942
000390 7d db e4 bd 0b b0 1c 3d 49 9b 58 3d dc 05 49 bc
       -0.111746766 0.038253825 0.052882466 -0.012269463
0003a0 47 15 6b 3d c9 82 d4 bc 8d dc fa bc e7 4e 05 be
       0.05739334 -0.02594127 -0.030622745 -0.1301838
0003b0 03 15 63 bd 3b 31 81 3d 8a c7 8e 3c b8 17 6a 3d
       -0.05543996 0.06308218 0.017429132 0.057151526
0003c0 4e d4 7d 3d 77 67 5b 3d cc 96 3a 3d 37 1c 54 be
       0.061970048 0.05356547 0.045553967 -0.20713888
0003d0 db 38 fa 3c ea bd 0c 3b 6c af c3 bc 83 d8 1d bd
       0.030544689 0.0021475502 -0.023887359 -0.03853656
0003e0 43 38 d2 bc 00 86 45 39 c4 71 50 bd 74 10 23 be
       -0.025661593 0.00018837303 -0.050889745 -0.15924245
0003f0 9e 3f 8b bc 49 2f 0b 3d bb 55 9d 3d 36 45 5f 3c
       -0.016998108 0.03398064 0.076823674 0.013627341

net.4.bias f4 [24]
000000 85 0c 09 bc 0c 0b e5 3c 29 74 77 bd 26 89 2d 3c
       -0.008364801 0.02795937 -0.060413513 0.010591781
000010 a8 74 fe 3b 41 d8 6c 3b 74 f5 96 bd 4b 22 68 3d
       0.0077653714 0.003613964 -0.07371035 0.05667333
000020 c5 23 2e 3d b6 73 bc bc 7a 01 7a 3d 72 41 13 bc
       0.04251458 -0.023004394 0.061036564 -0.008987771
000030 84 d9 37 bd 30 65 f3 3c 18 9f 92 3d 6e d0 69 bd
       -0.044885173 0.029711336 0.07159251 -0.05708354
000040 7c 22 22 3c 75 73 ac 3c ce 50 d4 3c ff 2d b0 3c
       0.009895917 0.021051148 0.025917437 0.021506308
000050 99 22 df bb fa fb ab bc 7a 15 a2 bc 2f 31 46 3c
       -0.0068095443 -0.020994175 -0.019785631 0.012096687
